LunarLanderAgent.pt (torch, 31020 bytes, 8 tensors)

fc1.weight f4 [64, 8]
000000 ef e8 23 3e fd 43 22 be 3e 55 87 3f 14 c1 a8 3e
       0.16006826 -0.15846248 1.0572889 0.32959807
000010 77 38 4c 3e f4 e8 d9 be 18 ee 2e be a0 69 38 be
       0.19943415 -0.42560542 -0.17083013 -0.18009043
000020 1f 6c 6d bc d4 a7 db be c0 fe 24 be 81 2c 24 bf
       -0.01449111 -0.4290148 -0.16112804 -0.6413041
000030 c1 c4 f9 be d9 08 95 be a7 d6 50 3e 82 d7 ad be
       -0.48782924 -0.29108313 0.20394383 -0.33953482
000040 92 0d 56 be 2a 53 a9 3e bd 04 98 3f 87 fe 4c 3f
       -0.20903614 0.33071262 1.1876446 0.8007588
000050 7a 09 de be fc 28 00 bd 91 04 68 3e 5d 7c 91 3d
       -0.43366605 -0.031289086 0.22657992 0.071037985
000060 37 40 7e 3e 40 47 78 3e 60 d0 2e bf 6e 98 21 3f
       0.24829184 0.2424593 -0.68286705 0.63123214
000070 8e 80 07 3f 69 b2 3a 3e 1f 95 87 bd ae c2 09 be
       0.52930534 0.1823212 -0.066202395 -0.1345317
000080 2a 1f c1 bd db c5 91 be 5a 44 60 bf 1d 3b 2a be
       -0.09429772 -0.28471264 -0.87604296 -0.16624112
000090 07 00 ca bd 78 ac 03 3d b2 a1 25 be c3 48 02 3d
       -0.098632865 0.0321469 -0.16174963 0.031807672
0000a0 42 02 a3 bc 12 bc 95 3e e6 e8 6b bf 61 fc 1b 40
       -0.019898538 0.2924505 -0.9215225 2.437279
0000b0 6c b5 a5 bc 08 4f dd bd 34 75 5d 3e 5d d5 28 3e
       -0.02022811 -0.1080609 0.2162674 0.16487642
0000c0 29 0d fc 3e a5 c6 d5 be 63 c4 da 3f 86 cb b9 3e
       0.4922879 -0.41753116 1.7091182 0.3628809
0000d0 44 c8 8a 3d 36 37 9e 3d 15 e2 c3 3d 74 a7 87 3e
       0.06776479 0.077253744 0.09564606 0.26494944
0000e0 38 1b 68 3e 90 b3 cf 3e b9 09 68 3f cf 93 97 3c
       0.22666633 0.40566683 0.90639836 0.018503098
0000f0 17 d2 b8 be d0 78 95 3b 0e 74 91 ba df 1d b3 be
       -0.36097786 0.004561521 -0.0011097209 -0.34983727
000100 36 d2 4a 3e b5 26 81 be ac de ae 3f b8 43 97 3e
       0.19806752 -0.25224844 1.3661704 0.29543853
000110 47 ff af bd 51 83 cd bd f4 a0 8d be 10 bc b7 3e
       -0.08593612 -0.10034812 -0.2766186 0.35885668
000120 fe ee 0a 3e d2 68 1c bf bd 73 58 3f f7 d7 c7 bd
       0.13567731 -0.61097443 0.845516 -0.09757989
000130 e3 a2 7a 3e 0a 7e a9 be 2c 1c 10 3e a3 bd f6 bb
       0.24476199 -0.33103973 0.14073247 -0.0075299307
000140 30 dd 19 be b3 d2 e8 be c0 07 58 3e 4f 33 ce be
       -0.15025783 -0.4547325 0.21096706 -0.4027352
000150 1a 91 92 be 6d 06 a9 be 80 d2 19 be 04 45 c8 3c
       -0.2862633 -0.33012715 -0.15021706 0.024446972
000160 3c 0e 82 3e 10 eb 46 bf d8 b9 28 3f 79 87 07 3e
       0.25401485 -0.77702427 0.65908575 0.13235272
000170 c9 c9 91 be 6a c2 a0 be 54 2f a7 be d2 f4 3c 3e
       -0.28474262 -0.31398326 -0.32653296 0.18452767
000180 aa 88 f4 bc 5a 2a 7d bd ac 61 da 3f d3 89 3d 3f
       -0.029850323 -0.061807968 1.7061057 0.7403843
000190 86 95 5d 3d ed 03 89 3e ff 2a 90 3d 58 96 36 3e
       0.054097675 0.26760808 0.07039451 0.17830789
0001a0 9a 0e 97 be 7e 59 fe 3e 36 fc 22 bf 7e 67 a0 3d
       -0.29503328 0.49677652 -0.63666093 0.078322396
0001b0 69 a4 2e 3f 3f aa fc 3e 18 da b7 3d 84 cd 75 3e
       0.6821962 0.49348637 0.08977145 0.24004179
0001c0 22 8e 1a bd ca 9c 2b bd ae 2d 4e bf f3 4b b7 be
       -0.037733205 -0.041897573 -0.8053845 -0.35800132
0001d0 be 05 1e bf 81 98 82 3e de db c8 3e 3b f8 a8 be
       -0.6172751 0.25506976 0.39230245 -0.33001885
0001e0 9e 20 8a be db b9 ea 3e 3f 09 a0 3f ae 63 bc be
       -0.2697801 0.4584492 1.2502822 -0.367948
0001f0 8e 8a 1f bf 90 bc 4a 3e 4e 23 1f 3c da 47 99 3e
       -0.6232079 0.19798493 0.009713007 0.2993763
000200 a5 ba 54 3a 7c 69 a8 be dc f1 72 bf 47 0d 2e be
       0.00081149704 -0.32892978 -0.949003 -0.16997252
000210 a4 ef 4f 3e 44 be b2 3e db 1f 42 3e b2 96 ca be
       0.2030626 0.34910786 0.18957464 -0.39568096
000220 d8 e5 c1 bd 0b c3 04 3e 86 82 46 3e f9 53 ef bd
       -0.09467667 0.12965028 0.19385728 -0.116859384
000230 b9 36 0e bf 4c 43 b3 be 89 35 d9 be f1 60 3b be
       -0.5555225 -0.3501228 -0.42423657 -0.18298699
000240 64 15 34 3e 3b 09 2f be ce ac a0 3c 57 00 99 bd
       0.17586285 -0.17093365 0.01961365 -0.07470768
000250 3e 8f 54 be 61 66 8c be 4f 4d e0 3d 5e 80 1d be
       -0.20757768 -0.2742186 0.109522454 -0.15381
000260 c6 2a 0a be e3 fd fa 3e 38 ab b9 3f 9a 3a 59 3d
       -0.1349288 0.49021825 1.4505377 0.053034402
000270 14 b2 9d be 01 67 22 be 60 0e 7b 3e 6a ea ad bd
       -0.30799925 -0.15859605 0.24517202 -0.084919766
000280 a4 fb 47 3e ab 5e ab 3e 2d ab ca 3e c5 a3 dc be
       0.19529587 0.33470663 0.39583722 -0.43093696
000290 a7 7e f2 be 30 43 08 bf d5 b6 15 3c 88 28 b8 ba
       -0.47362253 -0.5322752 0.009137829 -0.0014050165
0002a0 a1 dd 65 3e 5c 74 8f 3e 23 34 58 be fa 53 44 bf
       0.22447826 0.28018463 -0.21113639 -0.7669064
0002b0 41 2c 20 3f f6 bf 24 3f 0a 02 32 3c 78 e4 cd 3e
       0.62567526 0.6435541 0.010864744 0.4021337
0002c0 03 4f 1a be 4e 63 dd 3e ff f6 13 bf f3 9b 13 40
       -0.15069203 0.43239826 -0.5779876 2.3063934
0002d0 41 1a 69 3e 8f 40 98 be 96 5b c5 3d 92 10 dc 3c
       0.22763921 -0.29736754 0.09636609 0.02686337
0002e0 79 96 3e 3e 5d 8f 4e 3e 4a e6 cd be 89 34 b0 be
       0.18612088 0.20171876 -0.4021476 -0.3441508
0002f0 3a 00 e6 3e 8a 3e 97 3e c8 6a 09 be 4c dd 0f be
       0.44922048 0.295399 -0.1341964 -0.14049262
000300 b2 00 92 be 6d f5 3f bd ea 97 0d c0 f2 f5 46 3e
       -0.28516155 -0.046864916 -2.212397 0.19429758
000310 c3 2f d6 3c 25 f7 f3 ba a4 be 7e 3d d3 d7 61 3e
       0.026145821 -0.0018613084 0.062193528 0.22054987
000320 c1 84 db 3d 7b a7 b5 3e e3 2e 28 3f 3f 60 f2 3e
       0.1071868 0.3547934 0.65696543 0.47339055
000330 3b 08 db be b6 3c 3e be c4 90 cc be 4b 56 81 be
       -0.42779717 -0.18577847 -0.39954197 -0.2526115
000340 27 b4 71 be 8c ef f1 be 29 8a 1f bf ff 94 02 bf
       -0.23603879 -0.47253072 -0.6232019 -0.510086
000350 b8 5f 5b 3d 4c 10 df bd b6 ab c2 bd 7e 65 95 bd
       0.05355808 -0.1089178 -0.095054075 -0.07294749
000360 fa 8f b9 3e bd e2 8f bd 45 fb b4 3f a9 86 13 3e
       0.36242658 -0.07025669 1.4139181 0.14406838
000370 81 8d f8 3e f4 f7 3f be 2a e7 84 3d e9 18 fe 3d
       0.4854546 -0.1874693 0.064894035 0.12407095
000380 e5 23 a3 3e 32 97 cb 3e fe 7c a7 3f 65 a9 c2 3e
       0.31863323 0.3976379 1.308502 0.38019863
000390 23 a8 09 bf fc be 2d bd 99 ae 29 3d c0 3b 35 3e
       -0.5377218 -0.042418465 0.041426275 0.17698574
0003a0 c8 b0 88 3c 5b 67 05 bf 44 24 c7 be c6 0c 0f bf
       0.016685858 -0.5211083 -0.38894856 -0.55878866
0003b0 8a fa a2 bd 1e ad c8 bd 85 80 e5 3c cf 81 45 bd
       -0.07957943 -0.097986445 0.028015384 -0.0482195
0003c0 1b b6 7d bc 76 de 11 bf 76 68 12 3f b4 aa a4 3e
       -0.015485312 -0.56980073 0.57190645 0.32161486
0003d0 04 44 8e 3e 97 1c 02 be 20 3d 2f 3d c2 1f 92 3e
       0.27786267 -0.12706219 0.042782903 0.28539854
0003e0 8a 77 c7 3e 47 ff 1a be f5 7a 90 3f 67 7e 1f bd
       0.3895839 -0.15136443 1.1287524 -0.038938906
0003f0 fa 1a 29 3f fe 58 ad 3d 98 a4 92 be 4a a0 8a 3e
       0.6605679 0.084642395 -0.286412 0.27075416

fc1.bias f4 [64]
000000 92 e8 8b 3c 7a f6 16 bb d2 08 a4 3c c4 5a dd 3e
       0.017078672 -0.0023035095 0.020023737 0.4323331
000010 1b c7 d4 3d 7c 48 8b 3d 79 dc 11 3e f7 96 b0 3d
       0.10389539 0.06800935 0.1424426 0.08622544
000020 3c d5 90 3b d3 d0 cd 3c 2f 2c c0 ba da 78 26 3e
       0.004419951 0.02512399 -0.0014661605 0.16257039
000030 b0 64 2a 3d 7c 91 9b bd bd 46 55 be 5a 16 30 be
       0.04159993 -0.07596108 -0.20827766 -0.17196026
000040 81 91 b2 3e fa 40 1f 3e 42 e3 98 be 53 71 3b bc
       0.34876636 0.1555213 -0.29860884 -0.011440593
000050 a1 e1 85 be 22 6e 65 be dd 70 8d 3d e5 fa cb bd
       -0.26148704 -0.22405294 0.069062926 -0.09959964
000060 36 a6 3a 3d 12 8e 7a 3e 91 32 b3 3d de e0 f8 bc
       0.045568667 0.24468258 0.08749879 -0.030380663
000070 94 0b 11 be 74 85 3b 3d f6 21 dc 3d e8 a1 c3 bd
       -0.14164573 0.045781568 0.10748665 -0.095523655
000080 e6 3d 7a 3e 27 30 e1 3d 3e 44 8e be 70 54 18 be
       0.24437675 0.109955125 -0.2778644 -0.1487596
000090 e3 b1 47 3d ab 98 2e bd c9 67 01 3e af 69 bf 3e
       0.04875363 -0.042626064 0.12637247 0.37385318
0000a0 b0 7f de bd b7 a5 34 3d ab 38 f8 bc 18 5d bc bd
       -0.10864198 0.04410335 -0.030300459 -0.09197444
0000b0 dc 6c 8c 3e b1 9c ef bd bd 8e 4b 3e dc 57 b3 3b
       0.27426803 -0.116998084 0.19878669 0.00547312
0000c0 63 db 39 bd a5 2b 25 3e 3d 79 a6 bd df e2 2a be
       -0.04537524 0.1612993 -0.08128593 -0.16688107
0000d0 c1 4c da 3c e2 82 e5 bd b5 a2 9b be fa 25 4d be
       0.026647927 -0.112066045 -0.30397573 -0.20034018
0000e0 32 31 ca bd 53 e8 0b 3e 2e 22 90 bd ec 3c 02 be
       -0.098726645 0.13662843 -0.07037769 -0.12718552
0000f0 6a 2e 34 be 61 f7 d9 3d ff 10 a0 be 8d 3e 49 3e
       -0.1759583 0.10642887 -0.31262967 0.19652767

fc2.weight f4 [64, 64]
000000 c4 48 a3 3b 15 99 50 3e 73 87 0c bf 88 15 f7 be
       0.0049830396 0.20370896 -0.5489418 -0.48258615
000010 af 99 2d 3e 96 cd 41 bf af 02 50 bd 56 18 76 be
       0.16953157 -0.75704324 -0.05078381 -0.24032721
000020 fd cb 18 3e b2 ca 83 3d db 50 b4 3d e6 aa ad 3e
       0.14921565 0.064351454 0.088044845 0.33919448
000030 93 9a f9 bd 0f 0f 89 3b 4d 34 8c 3e 67 94 cd bc
       -0.12187686 0.0041827033 0.27383652 -0.025095178
000040 06 7f af 3d 49 c1 1c 3e 9b 21 94 bd 04 63 e0 be
       0.0856915 0.15308107 -0.07232972 -0.43825543
000050 bd e3 c6 be ac 9b 8e be 34 0f 2a bf 75 9f 2e bd
       -0.38845626 -0.27853143 -0.6642945 -0.04263254
000060 b3 e6 38 3e 4d 56 94 3c 7b 80 8e 3d 81 39 96 3e
       0.18056755 0.018107558 0.069580995 0.29340747
000070 78 38 bd be 2e cc 40 3e 63 0b 23 3e 12 93 79 3e
       -0.36957145 0.18827888 0.15922312 0.24372509
000080 b2 02 26 3e d3 52 cc 3d 4f 63 de 3d 02 ab 8a 3e
       0.16211966 0.09976735 0.10858785 0.27083594
000090 6d 83 e2 3e d2 3a bf 3d 27 11 c2 bd 4e 55 5c 3e
       0.44240895 0.09337391 -0.09475928 0.21516916
0000a0 32 42 b8 3e 3c f6 1e 3e 12 e2 73 3e ec 84 4c 3e
       0.35988003 0.15523618 0.23816708 0.1997258
0000b0 05 7c 01 3e dd 0b 98 3d ab b9 22 3e 6e a4 34 3e
       0.12644966 0.07424138 0.15891139 0.1764085
0000c0 69 71 a3 be c5 a5 32 be e4 15 da bd 44 bd 6a bc
       -0.31922463 -0.17446049 -0.106487066 -0.014327351
0000d0 0d a0 cd bd d8 fe cd 3d 7f e3 1f be 26 60 01 3e
       -0.10040293 0.10058373 -0.15614127 0.12634334
0000e0 02 da 49 3f f0 14 b5 3d 82 f3 78 be f9 e4 7a 3e
       0.7884828 0.08841884 -0.24311641 0.24501409
0000f0 7d f3 a6 be ed d2 a7 be 89 48 26 3e 04 09 ad be
       -0.32607642 -0.3277811 0.16238607 -0.3379594
000100 55 73 2b 3d 92 18 9a 3e 92 08 4d bf c8 64 f4 bd
       0.041858036 0.3009687 -0.800912 -0.11933285
000110 84 90 80 3e 75 b3 f1 be 42 00 76 3e 2d 83 ed be
       0.25110257 -0.47207227 0.24023536 -0.46389142
000120 e4 75 08 3e 19 4d f7 bb 25 68 ea 3d 9f e0 50 3e
       0.13326222 -0.0075470326 0.11445645 0.20398186
000130 1b 7f 5b 3d 27 eb 97 be cd bb 9e 3e 74 02 8b be
       0.053588014 -0.29671595 0.31002656 -0.2715031
000140 0e e0 b1 3d 46 4b 58 3e c2 77 ac 3c e6 3c 14 bf
       0.08685313 0.21122465 0.021053199 -0.57905424
000150 ef 37 08 be db 02 86 be 4c 4b b7 be 4d df 76 3d
       -0.13302587 -0.26174054 -0.35799634 0.06027155
000160 52 8a 4e 3d de bd 22 be 83 15 22 3e d8 51 ac 3e
       0.05042488 -0.15892741 0.15828519 0.33656192
000170 84 bb 0c bf ac 16 2d 3e 42 52 9f 3e 91 97 44 3e
       -0.54973626 0.1690318 0.31117445 0.19198443
000180 4b 71 96 3d 5f e6 49 3d 20 91 e5 3d 3d 66 c7 3e
       0.07345828 0.049291965 0.11209321 0.3894519
000190 04 71 1f 3e 44 8b 6a 3e 94 53 1e 3e 09 20 2a 3e
       0.15570456 0.22904688 0.1546157 0.16613783
0001a0 8f 0b 45 3e 0b 0a 6b bd b4 64 9e 3d 1a e6 29 be
       0.1924269 -0.057382625 0.07734051 -0.16591683
0001b0 30 3f a1 3e a3 e5 a9 3e b7 15 17 3d 82 0d d9 3d
       0.3149352 0.3318301 0.036885943 0.105982795
0001c0 5b ea e1 be 24 fd 8a be eb 88 98 bc 78 b6 26 3c
       -0.44124112 -0.27146256 -0.018619975 0.01017534
0001d0 b8 0b 54 be 06 b5 9e bd ec 13 d4 be a3 a9 8d be
       -0.20707595 -0.07749371 -0.4142145 -0.27668485
0001e0 5c d2 7d 3f ad 41 17 3e ba ed de be 74 85 8f 3e
       0.9914911 0.14771147 -0.43540746 0.28031504
0001f0 fa 0b 0f bf d9 6b 64 be ac ea 9b 3d 7b 12 a6 3d
       -0.5587765 -0.22306766 0.076131195 0.081089936
000200 3a 32 ef bd 16 35 31 3e 9c 16 08 bf 55 6d a6 be
       -0.11679502 0.17305407 -0.531595 -0.3250529
000210 dd 9b 7e 3e 0a fd 5c be 36 9e 02 3e 16 6d f9 be
       0.24864145 -0.21580902 0.12755665 -0.48716038
000220 dd 45 df 3c e6 ee 62 3d 5c 9e 22 3e c4 fd 14 3e
       0.027254993 0.055403613 0.15880722 0.14549929
000230 75 cd 9a bd 02 3e 13 3e 19 d8 ac 3d 13 be 9f be
       -0.07558719 0.14379123 0.08439655 -0.31199703
000240 ae 22 a3 3e ad fb 59 bd 7a 19 23 3d d2 eb 2e bf
       0.31862396 -0.053218532 0.03981922 -0.68328583
000250 03 71 d2 be c8 84 05 bd e6 46 ba be b6 77 fa bd
       -0.41101846 -0.032597333 -0.36382216 -0.12229864
000260 d0 cf e9 3e d7 d8 eb bd 7b bb a4 3b 52 f1 9f 3e
       0.4566636 -0.11515968 0.005027232 0.312388
000270 13 4f e2 be 50 88 a9 3e 19 f5 07 be 54 52 b4 3e
       -0.44200954 0.3311181 -0.13277091 0.3521906
000280 e6 a6 1e ba d4 d0 bc 3e f8 07 53 be 61 4c b5 3e
       -0.00060520915 0.36878073 -0.20608509 0.35409835
000290 a2 91 c4 3e 6d 86 ff 3d c8 9e ee bd cf bb c8 3e
       0.3839236 0.124768116 -0.11651379 0.39205787
0002a0 23 2f c4 3d 43 23 a9 3e 6b db 9a bc 65 c4 a7 bb
       0.09579303 0.33034715 -0.018903455 -0.0051198476
0002b0 df 9b a7 3b 9e 68 57 3d 8c 04 a5 3e 0a d2 b6 bd
       0.005115017 0.052590005 0.32230031 -0.089267805
0002c0 8c b9 37 bf f7 e5 18 be 03 b1 cd be 7f a7 9c 3e
       -0.717675 -0.14931475 -0.40174112 0.3059654
0002d0 1f a7 46 be ca e4 f0 ba 42 16 c7 bd 25 56 c0 3e
       -0.19399689 -0.0018378731 -0.09721042 0.37565723
0002e0 51 17 76 3e 98 1c ad 3e 55 1a 94 3d 64 96 00 be
       0.24032332 0.33810878 0.07231585 -0.1255737
0002f0 9b d8 d6 be 71 1f 36 be 8f 9c 05 3e 5e c0 10 bf
       -0.41962132 -0.17785431 0.13048004 -0.5654353
000300 b6 73 6c bd f3 22 18 bf fa 9c 85 3e 71 f5 84 3e
       -0.057727538 -0.5942833 0.26096326 0.25968507
000310 d1 95 9a 3d cf 83 89 3f 88 1f ff bc 50 a6 ca 3d
       0.075481065 1.074335 -0.031142965 0.09895003
000320 f7 1f b0 3c 0b f0 86 3d dd 2f 52 3d 55 9a fa bc
       0.021499617 0.06588753 0.051315177 -0.03059117
000330 26 8d 8d 3d 61 89 50 3e 7e 1d 9f be e2 ec 96 be
       0.069116876 0.20364906 -0.31077188 -0.29477602
000340 16 0d 36 3e 87 4d 3f 3c 43 18 b6 bd 7f 30 33 be
       0.1777843 0.011676199 -0.08891346 -0.17498969
000350 9f 4c a9 bd 4e c2 4b 3e 31 77 2d 3f e5 c2 97 3e
       -0.082665674 0.1989834 0.67759997 0.2964088
000360 14 36 1f 3e a8 56 a9 3e d1 c8 aa 3d c1 de cc be
       0.15547973 0.33073926 0.08339084 -0.40013698
000370 60 51 72 be 16 cf 4d be 7a e7 b8 3d ee a6 32 be
       -0.23663855 -0.20098528 0.09028526 -0.17446491
000380 13 02 78 3e 2b 23 0b 3e 04 a3 88 3e 07 51 d4 be
       0.24219541 0.13587634 0.2668687 -0.4146807
000390 34 f3 c1 bd ca e8 a9 3d e8 d1 ff 3d 8c 63 bf 3d
       -0.094702154 0.08296354 0.12491208 0.09345159
0003a0 f5 89 72 be 6f a5 8c 3e d2 15 ee 3b ad 5a 14 3e
       -0.23685439 0.27469966 0.007265785 0.14487715
0003b0 7a 89 53 bd 84 07 bd be 65 5c 3a 3d 0e de bb 3d
       -0.05164478 -0.36919796 0.04549827 0.09173213
0003c0 0d 44 bb 3e e0 cf 11 3f 8f 5b b7 bd b5 a8 95 3e
       0.36575356 0.5695782 -0.0895301 0.29230276
0003d0 00 e1 ae 3e f8 de 14 3d 8c 0a ed 3a b4 44 42 3e
       0.34156036 0.036345452 0.0018084808 0.1897152
0003e0 87 c2 15 bf f0 6f 01 3e f3 4e 9f 3e 4a 37 b5 be
       -0.5849995 0.12640357 0.3111492 -0.35393745
0003f0 79 41 4a bd 9b ff 9f 3d bf cc fd be 5b b2 80 3d
       -0.049378846 0.07812425 -0.4957027 0.062840186

fc2.bias f4 [64]
000000 18 55 10 3e 22 2f 8d bb e5 04 3f 3e 3f fe 3c 3e
       0.1409496 -0.004308597 0.18654211 0.18456362
000010 01 12 ac 3d aa 6f 46 3e 08 db ab 3d af 48 da 3c
       0.084018715 0.19378534 0.08391386 0.026645986
000020 71 21 02 be 8c 55 26 3e a7 b8 fe bd 89 21 62 3d
       -0.1270807 0.16243571 -0.124375634 0.055207763
000030 3d 42 f6 3c 24 cb 07 3e 26 f1 af bd 95 41 e4 3c
       0.030060882 0.13261086 -0.08590917 0.027863303
000040 e4 8e 80 bd ec 63 c2 3d 0d e7 01 3c f2 71 18 3e
       -0.06277254 0.09491715 0.007928622 0.14887217
000050 16 d0 44 3d b3 f1 b9 3d 19 b1 eb 3d 6d cd a4 bd
       0.04805001 0.090793036 0.11508388 -0.08046994
000060 43 97 cf 3d 76 27 44 bd 48 20 19 3e e4 d2 75 3d
       0.10136273 -0.047889195 0.1495372 0.060015574
000070 6a ca 31 bd c0 30 31 3e 36 c8 9f 3d d5 18 ef bd
       -0.043405928 0.17303753 0.07801859 -0.11674658
000080 ff dd 85 3c 54 6e b2 3d 65 5b ee 3d bd da b6 bd
       0.016341208 0.0871245 0.11638526 -0.0892844
000090 00 ef 9e 3d ba 2c a6 3d 4f 98 16 3e 55 80 46 be
       0.077604294 0.08114 0.14706539 -0.19384892
0000a0 4d 92 25 be 1a e1 f2 3c cc 1b 3d ba 41 60 34 3d
       -0.1616909 0.029648352 -0.000721392 0.044037107
0000b0 80 f0 97 3d 9c 08 31 bb 6e 2c e7 3c db 14 47 3d
       0.074189186 -0.0027013188 0.028219428 0.048603874
0000c0 2c 6c 36 3e 0d 07 fd 3d 62 8d 3d 3e ba 18 f6 bd
       0.17814702 0.123548605 0.18510965 -0.12016435
0000d0 3f 94 12 3d 5c 0f 09 be 09 84 09 be ac f5 67 3e
       0.03578591 -0.13384765 -0.13429274 0.2265231
0000e0 64 3f e6 bd 65 73 ed bd 93 41 8c bc f7 1f 6f 3d
       -0.112425596 -0.115942754 -0.017121112 0.058380093
0000f0 ab 0a 5a 3e 06 07 51 bd 0d 04 ad 3d 43 7c 2a 3e
       0.21293132 -0.05103209 0.08448038 0.16648965

fc3.weight f4 [32, 64]
000000 6e 2a 1e bc 22 d8 9c bd 3c 12 ae 3d 30 04 b4 3d
       -0.009653671 -0.076584116 0.08499572 0.08789861
000010 18 f8 c3 3d f3 51 a7 bd 81 75 b5 3c cb 9a ad bd
       0.095688045 -0.081699274 0.022150757 -0.0847679
000020 b0 ef 3f 3c 24 ad 5d bd 34 08 74 3d 40 af a7 3c
       0.011714861 -0.054120198 0.059578136 0.020469308
000030 93 91 52 bd cf 0a 79 3c 1c 81 e1 bd 66 22 b9 bd
       -0.05140836 0.015200331 -0.11010954 -0.09039764
000040 00 88 30 bc 72 b6 aa bd d0 6f 20 bd bf 1c 5b 3d
       -0.010774612 -0.0833558 -0.039169133 0.05349421
000050 12 d3 ce bc 6c 30 75 3d 37 ab 33 3d 20 83 9e bc
       -0.02524713 0.05986063 0.043864455 -0.019349635
000060 56 a8 c2 3d a0 bd 4d bb 02 af a9 bc b8 6b 12 3d
       0.09504764 -0.0031393543 -0.020713333 0.03574726
000070 36 56 a4 bd 55 c8 fb bd f8 b0 7b 3d 60 20 a8 bb
       -0.08024256 -0.1229407 0.061448067 -0.0051308125
000080 3e b7 bc bd 71 e0 2e 3d 9f f5 b7 bd 24 a8 93 3d
       -0.09214638 0.042694513 -0.089823954 0.07209805
000090 bb 23 02 be 05 15 3c 3c c0 95 bf bd 71 15 e3 3d
       -0.12708943 0.011479621 -0.093547344 0.11088074
0000a0 40 0e ae bd dc a7 d6 bd a2 7c cf bc 80 d0 9e 3d
       -0.08498812 -0.104812354 -0.025327984 0.07754612
0000b0 43 24 f7 bd df dc 36 bd 77 c4 8a 3d 1a 88 8f 3d
       -0.12067463 -0.044644233 0.06775754 0.07008381
0000c0 43 12 cf bd 6f 66 92 3d 58 b4 3d bd c0 13 15 bb
       -0.10110905 0.07148444 -0.046314567 -0.0022747368
0000d0 42 4a f7 3c c6 88 d5 3d e9 92 ad 3d d3 ac 25 bd
       0.030186776 0.10426478 0.084752865 -0.04044802
0000e0 2a 76 d7 3d c2 4a 87 3d 0d 1f a2 bd de c8 b4 3c
       0.10520585 0.06606056 -0.07916079 0.022068437
0000f0 e1 96 9b 3d 2d 09 7f bd 6d 23 65 3c 40 f4 8b 3d
       0.07597137 -0.06226461 0.013985497 0.06833696
000100 65 36 f9 bd 1e 7a 24 bd 8d ea 95 3c 78 bf ac 3d
       -0.12168578 -0.040155523 0.01830032 0.08434957
000110 b6 ba 1e 3c e7 db 7c 3d b1 25 e3 3c 68 01 19 bd
       0.00968807 0.061733153 0.027727934 -0.037354857
000120 d9 a9 0b 3c e0 3f 23 bd bb bf dd 3d 00 93 51 3d
       0.008524382 -0.039855838 0.10827585 0.05116558
000130 1d 7c 61 bd ef 90 26 3d e0 15 08 bd e8 ce c2 bd
       -0.055050004 0.040665563 -0.033223987 -0.095121205
000140 be 5b 2c bd d5 8a 6c 3d 73 6e 85 3c 7d ae b9 3d
       -0.04207968 0.057749588 0.016288018 0.09066484
000150 73 a7 4e bd aa de 8b bc cc cc 44 3d c8 c2 ce 3c
       -0.05045266 -0.017073948 0.048046872 0.025239363
000160 b0 59 bf 3d 2a 88 09 bd 82 e8 11 be 02 85 88 bd
       0.093432784 -0.03357712 -0.14248851 -0.06665994
000170 19 51 3b bc 87 fd 07 be 8d 68 81 bd 02 08 d0 3d
       -0.011432909 -0.13280307 -0.063187696 0.10157777
000180 00 06 90 3c cc 44 d9 bd 08 99 e8 bd 58 ee 9b 3d
       0.017580986 -0.10608825 -0.113573134 0.0761382
000190 ae 59 9d 3d 83 3f 81 3d d3 b8 ed bd bd 87 b5 3d
       0.07683121 0.06310942 -0.11607518 0.08863781
0001a0 f7 65 d5 bc cf 8b 60 bd b1 c5 c9 bc 65 e7 8c 3c
       -0.026049597 -0.054820832 -0.0246304 0.017200181
0001b0 2e 5e 21 3d a0 0e 91 3d 79 18 d6 3d 17 f2 00 be
       0.039396457 0.070828676 0.104538865 -0.1259235
0001c0 5f 1e 19 bd 53 5d eb bc 4e 35 1a bc 5b 05 22 3d
       -0.03738248 -0.028731024 -0.009412123 0.03955589
0001d0 a5 3f de 3d b0 e2 90 bd 77 5e ba bd 0d cd b9 bb
       0.10851983 -0.07074487 -0.09100049 -0.005670196
0001e0 a8 db 21 bd b7 17 75 bd 42 8f 1f bc 3d 54 ef bd
       -0.03951612 -0.05983707 -0.009738745 -0.11685989
0001f0 99 1d 10 bd b7 02 9b bd 98 cc c8 3c 1c 6d 07 be
       -0.035184477 -0.07568877 0.02451162 -0.13225216
000200 6d 24 b6 be 4e b7 d6 bc c3 f3 fc bd 9c e0 4a 3d
       -0.35574666 -0.026210453 -0.12351181 0.04953061
000210 32 5f cf 3d 48 3a a0 3d a7 d3 87 3d de 59 f0 3d
       0.10125579 0.07823616 0.06632166 0.11735891
000220 d5 70 48 bd 8f 7e 2f be 41 7b 5a bb 52 90 65 3c
       -0.04893573 -0.17138122 -0.0033337625 0.014011459
000230 b0 c3 fe bc 20 71 f6 3d 23 71 e7 3d 22 c5 c0 3d
       -0.03109917 0.12033296 0.11300876 0.094126
000240 cd ea aa 3c d1 6f 29 3d 5e b4 26 be 79 06 e4 3d
       0.020863915 0.041366402 -0.16279742 0.11134047
000250 b9 5d a7 bc 5f 31 b9 3c c0 fa fb 3d ec 99 e6 bd
       -0.020430433 0.02260655 0.12303686 -0.11259827
000260 54 75 47 be 21 ca 89 3b d7 92 1f 3e 6c d9 80 3d
       -0.19478351 0.004205004 0.15583359 0.0629147
000270 27 65 a3 bc 40 61 1e 3d 12 6e 02 3e f5 e5 1c 3d
       -0.019945694 0.038666964 0.12737301 0.03830524
000280 78 e6 bb bd 27 0a 1e be 9b 38 49 3c be 47 fb bd
       -0.09174818 -0.1543356 0.012281562 -0.12269543
000290 d1 f4 35 be 11 18 47 3e fe 15 a2 bd 1f a1 f7 3d
       -0.17769171 0.19442774 -0.07914351 0.12091278
0002a0 d2 4d 37 be f3 64 22 3d 15 50 93 bc e4 f6 1b 3d
       -0.1790078 0.039647054 -0.017982522 0.03807725
0002b0 fb 6c 0f bd 39 5a 60 3e aa 09 fb 3d ce 5d 44 3e
       -0.03501604 0.21909417 0.12257703 0.19176409
0002c0 25 70 9a 3d 0c f8 31 3e 08 a0 bb 3d a8 be f0 bd
       0.07540921 0.17379779 0.09161383 -0.11755115
0002d0 1f a8 9e bd 8f ac 5b 3c 1d d2 c6 3c de 3a 98 bd
       -0.0774691 0.01340784 0.024270112 -0.07433103
0002e0 88 c4 d1 bd 06 52 c1 3d 06 71 e8 3d 09 82 1e 3c
       -0.102425635 0.09439473 0.113496825 0.0096745575
0002f0 43 1d a0 3d 8f c8 c2 3d 1c 64 2b 3d 9e 30 1d 3e
       0.07818081 0.0951091 0.04184352 0.15350577
000300 6d 3c 65 be b5 66 2a be 42 5f d6 be e5 02 1f 3f
       -0.22386332 -0.16640742 -0.4186955 0.6211379
000310 7b b7 08 bf ce 4f 0f 3e 49 45 60 3a ac 47 76 be
       -0.5340497 0.13995287 0.0008555246 -0.24050778
000320 7b 6a 7b 3b 42 98 f3 3e d3 05 2d 3d 33 5c c0 bd
       0.0038363028 0.475771 0.042241883 -0.093925856
000330 5a 3e ce bd cd c8 f6 3d 6f 1a d0 be ce d0 1a 3d
       -0.10070486 0.120500185 -0.40645167 0.037796788
000340 63 d2 d0 3e 6a 0a a4 be c3 97 aa be 0b 12 0d 3e
       0.40785512 -0.32039195 -0.3331891 0.13776414
000350 99 22 15 bf 3c dd 03 3f b7 a0 2b bf 5c 65 c3 3d
       -0.58255917 0.5150945 -0.67042106 0.09540817
000360 7d d0 fa bd ea 8b 04 3f bd de 1c 3d 3e 56 eb 3e
       -0.12246797 0.5177599 0.038298357 0.45964235
000370 a5 59 ba bd a3 60 15 3f b4 95 a6 3d 5d b3 86 3d
       -0.090991296 0.5835058 0.08134022 0.065771796
000380 ca eb c5 3d 35 1d 83 be 3d 8c 42 3e 42 a5 b5 bd
       0.09664114 -0.2560822 0.18998809 -0.08869411
000390 df 3f 69 be e0 98 e3 3e e1 54 46 3f ba 43 83 bd
       -0.22778271 0.44452572 0.77473265 -0.06409402
0003a0 3b 25 ed be 68 eb 3f 3e be 4f 9f be 28 f7 6e bd
       -0.46317467 0.18742144 -0.31115526 -0.058341175
0003b0 78 49 6a bd 09 db f3 bd b6 4b 1d 3f 87 e4 08 3d
       -0.05719897 -0.11907012 0.6144365 0.033421066
0003c0 c0 39 2e 3f 5e 93 fd 3e e0 3d d7 be bf 20 8d bc
       0.6805687 0.49526495 -0.42039394 -0.017227529
0003d0 fe 66 f2 be 98 8e f6 bc b6 b3 a4 be 9c 52 95 be
       -0.47344202 -0.03009729 -0.3216836 -0.29164588
0003e0 72 fc d3 bd 2d 0f cf 3c 57 81 10 3f d4 23 f6 be
       -0.103508845 0.025275791 0.56447357 -0.4807421
0003f0 10 67 ac 3e 2e 0b d6 3d 77 d0 1e 3e dc 97 ec be
       0.3367238 0.10451351 0.1550921 -0.4620961

fc3.bias f4 [32]
000000 98 0d 07 be 87 3a a0 bd da b6 76 bd 6f 92 49 3d
       -0.1318878 -0.07823663 -0.060232975 0.049211916
000010 70 d8 27 3e 0f 91 cb 3d d9 16 b4 3d a8 96 66 bc
       0.16391158 0.09939777 0.0879342 -0.014074005
000020 8e 24 8c 3e cf bd 0b bb de 4a 29 3e 00 22 46 3e
       0.2737164 -0.0021322852 0.16532466 0.19348907
000030 44 9b f3 bd 2b 88 84 bd cd 7e 69 3d b2 62 b3 3d
       -0.11894849 -0.064712845 0.057005692 0.08759059
000040 e5 35 59 3e f8 71 3e bd bb 88 39 3e f3 79 8a 3e
       0.21211965 -0.046495408 0.18118565 0.27046165
000050 3c 35 7c 3e a4 13 bb bd cc 66 06 be 07 6e b9 3e
       0.24629682 -0.091346055 -0.13125151 0.36216757
000060 c8 92 2a be 32 e0 b6 bd 8f c9 40 3d bb 75 12 bd
       -0.16657555 -0.089294806 0.04706722 -0.035756808
000070 19 94 6d 3e 9a cb 87 bc 9d ae 93 3d 39 a7 66 3e
       0.23201026 -0.016576577 0.07211039 0.22524728

fc4.weight f4 [4, 32]
000000 cf 3e 1f 3e c4 73 f3 bc b2 63 5f 3e 16 3f 6e 3e
       0.15551303 -0.029718287 0.21815374 0.23266253
000010 c1 55 78 bf 5d 77 32 bf b5 d1 b0 be 52 76 be 3c
       -0.9700585 -0.69713384 -0.34534994 0.023249779
000020 77 81 75 be 38 da 90 3e 37 62 81 3e e0 b2 85 3e
       -0.23975168 0.28291488 0.25270244 0.26113033
000030 bf 02 1b be 05 63 2c 3d 77 12 e0 3e 3c 1f a1 bd
       -0.15137766 0.04208662 0.43764088 -0.078672856
000040 56 6a cd 3e 94 cc 4b bf b0 5f c6 3d b9 ad 08 3e
       0.4012019 -0.79609036 0.0968622 0.1334752
000050 27 34 af bd d6 23 04 bd 05 99 d9 3c 82 e7 bf be
       -0.08554869 -0.03226074 0.026562223 -0.37481314
000060 dd 0f 3e bd 33 cf 88 bd ac 7e 9f 3e fe e5 63 3e
       -0.046401847 -0.06680145 0.3115133 0.22255704
000070 eb 3e 2e bf 48 e9 d9 3e e1 d5 79 bf c9 b5 de 3d
       -0.68064755 0.42560792 -0.9759198 0.108745165
000080 6c e7 60 bd 5a 57 6c 3d e8 e0 ae bc f5 6b 43 3f
       -0.0549082 0.057700492 -0.021347478 0.76336604
000090 88 b7 98 be 84 0c 23 bf 7d 91 68 bf 76 df 4e bf
       -0.29827523 -0.6369097 -0.90847 -0.80809724
0000a0 c7 7b 96 bf d3 5c e5 be 64 f5 cc 3d 4b 11 57 3f
       -1.1756524 -0.44797382 0.10007742 0.8401076
0000b0 0c cd 2f 3e 29 89 92 3d 4c 56 3e be ae 67 89 bf
       0.17168063 0.071550675 -0.18587607 -1.0734766
0000c0 35 c4 4e 3f f8 2b 23 bf a1 74 a2 3e 82 2d 8d 3e
       0.8076814 -0.63738966 0.31729606 0.27573782
0000d0 19 74 9d 3e 55 46 4b 3d 43 ad 64 bd 30 26 66 bf
       0.30752638 0.04962762 -0.055829298 -0.8990202
0000e0 de 9e 97 3c 3c 54 ed bd a1 74 c4 be 3c 57 3d bf
       0.018508371 -0.11588332 -0.3837023 -0.73961234
0000f0 91 17 89 bd 6b a3 a0 be 4c b1 e3 be ed 67 5f 3e
       -0.06693948 -0.31374678 -0.44471204 0.21816988
000100 d3 27 5f 3c ea 7a 0f 3e d9 59 30 be 59 0f 1b bf
       0.013620335 0.14011732 -0.17221774 -0.60570294
000110 35 e6 ba 3e f1 16 1b 3f f1 b3 19 3f fb f8 80 be
       0.3650376 0.6058188 0.60040194 -0.25189957
000120 1f 73 04 3f 92 83 cb be 7d d6 31 bf 32 97 3d bf
       0.5173816 -0.39748818 -0.6946791 -0.7405883
000130 a8 83 65 bd 1c d5 b7 3c 93 dc 21 bf c8 e2 2b 3e
       -0.05603376 0.022440486 -0.63227195 0.16785729
000140 32 26 50 bf 3e aa f0 bd 80 33 d0 3e 73 1c cf 3e
       -0.8130828 -0.11751221 0.4066429 0.40451393
000150 34 ca 4d 3d 22 8a 7d bd bc 79 f0 bd 5b 79 86 3e
       0.050241664 -0.06189931 -0.11741969 0.26264462
000160 28 c7 1d 3e a6 c4 93 3c 01 9f 64 be 65 01 c1 be
       0.15408003 0.018038105 -0.2232628 -0.37696376
000170 dd 7c 14 3f e5 61 0d bf ae 10 78 be 54 34 f6 bd
       0.58003026 -0.552275 -0.24225113 -0.120216995
000180 b6 f8 e8 bd 0b c6 14 3e 74 f9 33 be 27 85 5d 3c
       -0.11375563 0.14528672 -0.17575628 0.0135205155
000190 28 8d d8 be 32 00 27 be 19 ec 0b bc 1d 61 00 3f
       -0.42295194 -0.16308668 -0.008540177 0.50148183
0001a0 7f b6 c1 3d ef 85 c5 3e 5b 77 d6 3e f0 4b be be
       0.094586365 0.38578746 0.41887936 -0.3716731
0001b0 85 81 3c bd 0c 82 20 3c c3 a9 f0 3e 7e 97 70 3e
       -0.046021957 0.009796631 0.47004518 0.2349529
0001c0 db 20 09 bf a6 58 07 3f e8 50 9e bf 4c 45 a6 bf
       -0.5356576 0.5286964 -1.2368441 -1.2989898
0001d0 9a 39 50 bf fd 73 83 bd 2f ac 6e bd 7a 6b 10 bc
       -0.81337893 -0.064186074 -0.058269676 -0.008814687
0001e0 98 9e 02 bd 41 de b0 bd 02 f9 92 3e 41 23 bc 3e
       -0.031889528 -0.086361416 0.28705603 0.36745647
0001f0 b2 2c de be a4 bf 03 3f a1 f0 d9 3e b3 f8 55 bf
       -0.43393475 0.51464295 0.42566398 -0.8358261

fc4.bias f4 [4]
000000 fd 70 0e 3d 3e 55 91 bc 9e 54 6c bc 18 53 e9 bd
       0.034775723 -0.017740842 -0.014424471 -0.11392802
