LunarLanderAgent2.pt (torch, 31032 bytes, 8 tensors)

fc1.weight f4 [64, 8]
00000000: 0afa 713e 0952 1dbc e50a dd3f dd7f 95be
00000010: 03ec cd3e 91a1 a23d dd0f b2be 7150 d53d
00000020: efad a13d 4547 d4be b16d 52be 0a8e b7bd
00000030: 3e59 c43d 7ecc 97be 04d7 353e 3dd7 933d
00000040: ddf2 183e 1248 2e3e fdbb 733f 383d 913e
00000050: e109 acbe 262b 8dbe 8af2 543e a727 46be
00000060: 645e 24be bdf4 03bf 4a64 c0be 38dd 38bf
00000070: c1e8 b33e 97fa 483d 8a68 e03b 516c debd
00000080: 58ed c33d 76bd c8bd 70c2 87bf 77ee 5abd
00000090: 1ccc dbbe 2473 3abe e2bc 983e a870 0fbe
000000a0: e124 a83e 4943 e23d 1376 c03e dc5c c6be
000000b0: 9c73 d3be 1b45 d0be 937a 21be dd36 21bd
000000c0: dd98 b93e ccd8 573e 12e0 293f cd6e b4be
000000d0: 6b49 f6be c451 89bc 2ba6 833e 9e2c 003e
000000e0: 2390 923e db61 dabd 2c7e 57bf b8b4 1d3e
000000f0: b38b db3e 5ced 57bd 91cc c13d 5be2 2a3e
00000100: f652 1abe b34a 77bd 9a06 26be c465 47bd
00000110: 2554 013e 53bb 063d f0f8 163d 686c f63d
00000120: e653 3c3e 35f5 be3e b8ae 91bf 0a9c c33d
00000130: 06ae ca3e c881 963b 823d 0ebd 6bb7 07be
00000140: a48d 9e3e 75c3 14bf 7ba7 e63d 4a0f 15bf
00000150: 84b4 1fbe 2811 11bf ba99 9ebe fc2f df3e
00000160: c1a9 d6bd f378 90bd 7e7a 8fbe a2b9 dbbe
00000170: 7cd6 6dbe 9a4d b1bd 2bff 81be b541 753e
00000180: db8e 24be 9986 133c 7cc4 8fbf 2951 ba3f
00000190: fb56 00be d0ef 28bd 037e 39bd 395b 803d
000001a0: ed67 2dbe 78d8 00bd 0b68 7cbe 3082 32bd
000001b0: 571c fc3d 38b1 683e 6006 80be 2fde d43d
000001c0: 9528 50be b27a 5abe d703 34be 715d d7be
000001d0: ab8d babe 4b16 c03e 3576 5a3e 962d aabe
000001e0: 3507 28be 9309 1bbe dae3 ee3e dcd7 0ebf
000001f0: 0fa7 3f3e 79e3 aabb fb98 b6bd ae77 00be
00000200: 8c2e d0bd 2bfb 573e 6788 903f 777f 2f3f
00000210: 2ea1 4fbe 56ec 5d3e 6de5 2fbd 52dd 04be
00000220: a227 5ebe 3991 92bd 18f8 b2be 1e8f d7be
00000230: eef6 d63e 739c 1b3e c0bf a6bd 0f64 dcbd
00000240: 5239 83bd 3d39 5a3e 50af 8bbf 01da b8be
00000250: a22c 32bd 5c53 a83e 9965 af3e 1562 a3bd
00000260: 9f34 8f3e 02ce a23c 93d5 a73f e6cc e63b
00000270: 6f9b 62be 0007 dabe 1c2f 91be e928 533e
00000280: ddb3 c6bd 7d26 53be ba8b 3d3f bfdc babe
00000290: 4278 ef3e e09c cf3e b120 42bb ceee 0ebe
000002a0: 61b9 5a3c d18a cb3e 71c2 8dbf 69b2 8fbe
000002b0: 38ad 9e3e f721 163e ac61 713d 1c1c 843e
000002c0: 6526 90be 537c df3e 1e7a 6dbf b95f f7be
000002d0: 96db d13e 4d5b 10be 965d 043e 7140 c03d
000002e0: af7d e1bd 3887 ac3d 8e39 b7bf d841 d3be
000002f0: cd3d f3be 415c a03d cae9 3cbd ea07 94bc
00000300: faac aebc 1855 5a3e 742a 663f 5f7f 393f
00000310: ff46 23bf 5ca6 b7bd 3c4d 683e 813d adbd
00000320: e4be ae3e ba26 7ebe be7e 133e 2049 b83e
00000330: f4e6 49be fa09 333d 4c97 5cbe b74d 263e
00000340: 2f74 8f3c f91b 7cbe a5cb 98be 9030 04bf
00000350: e9f3 b93e 80fe 8e3e eedf b2be b0c6 b73d
00000360: 7a56 ddbd 8c23 43be f3f8 6ebe 3aae 4b3e
00000370: 9816 a6be 0290 09be 12f3 1b3e 3865 d6bd
00000380: 1d5d 043e 64d4 14be bea1 313f c1e0 ac3e
00000390: 4604 f5be 171d 35be 277a 0cbe 2cd2 3d3e
000003a0: 6293 d63e 179f 12be a86e 903f 1adb 45be
000003b0: df15 a8be cd35 ebbe 6872 83be 7815 3bbc
000003c0: d2e5 633e f850 b23e 5967 71bf 087d 803d
000003d0: 443c 8a3e 4008 49bd 22ba 10be 81b3 1ebe
000003e0: e0c8 e8bd ae25 edbd a84c 58bf a0d9 0e3f
000003f0: 3047 023f cf49 a93c 036c aa3e c5ad 5b3d
0.23630539 -0.009602078 1.726895 -0.29199114 0.40219125 0.079409726 -0.34777728 0.104157336
0.07894503 -0.41460624 -0.20549656 -0.08962639 0.09587334 -0.29648203 0.17757803 0.07218788
0.14936395 0.1701968 0.9520872 0.2836702 -0.33601287 -0.27571982 0.20795646 -0.19351064
-0.16051632 -0.51545316 -0.37576514 -0.72212553 0.35138515 0.049067106 0.0068483995 -0.108605035
0.09566754 -0.09801762 -1.0606213 -0.053450074 -0.4292916 -0.18207985 0.29831606 -0.14007819
0.32840636 0.1104799 0.37590083 -0.3874272 -0.4129914 -0.40677723 -0.15769415 -0.039358962
0.36249438 0.21078795 0.6635753 -0.35240784 -0.48102888 -0.016762622 0.25712714 0.1251702
0.28625593 -0.10663196 -0.841769 0.1540097 0.4288002 -0.052716598 0.09462846 0.1668791
-0.1507071 -0.060373973 -0.16213456 -0.048681036 0.12629755 0.03289349 0.0368585 0.120323956
0.1839138 0.37296453 -1.1381445 0.095512465 0.39585894 0.004593108 -0.034726627 -0.13253562
0.30967438 -0.58110744 0.11262413 -0.58226454 -0.15596205 -0.56666803 -0.3097666 0.43591297
-0.10481597 -0.07054319 -0.28023142 -0.42915064 -0.2322635 -0.086573794 -0.2538999 0.23950846
-0.1607012 0.009004259 -1.1231837 1.4556018 -0.1253318 -0.041244328 -0.04528619 0.06267399
-0.16934176 -0.03145644 -0.24649064 -0.043581188 0.12310093 0.22723854 -0.25004864 0.10393941
-0.20327981 -0.21335867 -0.1757959 -0.42063478 -0.3643621 0.37517008 0.21334155 -0.33237904
-0.16409 -0.15140371 0.46658212 -0.55798125 0.18716072 -0.005215105 -0.089158975 -0.12545654
-0.10165128 0.21091907 1.1291627 0.6855387 -0.20276329 0.21672186 -0.042943407 -0.12975052
-0.21694806 -0.07156605 -0.34954906 -0.42101377 0.41985267 0.151964 -0.08142042 -0.10761272
-0.06407417 0.21310897 -1.0912876 -0.36103824 -0.043499596 0.32876098 0.342572 -0.07977692
0.27969834 0.019873623 1.3112053 0.0070434688 -0.22129606 -0.42583466 -0.28356254 0.20621075
-0.09702275 -0.20620151 0.7404133 -0.3649654 0.46771437 0.40549374 -0.0029621536 -0.13958284
0.013349862 0.39754346 -1.1074964 -0.28065804 0.3099153 0.14661394 0.058931038 0.25802696
-0.28154293 0.4364954 -0.9276446 -0.48315218 0.40987843 -0.14097328 0.12926325 0.09387291
-0.110103 0.084242284 -1.4314439 -0.41261172 -0.47508088 0.07830096 -0.046121396 -0.01807018
-0.021322716 0.21321523 0.8990853 0.7245998 -0.63780206 -0.089672774 0.22685713 -0.084589966
0.34130013 -0.2481946 0.14403817 0.3599329 -0.19717008 0.043710686 -0.2154209 0.16240583
0.017511455 -0.24620046 -0.29842868 -0.516366 0.363189 0.27928543 -0.3493647 0.089734435
-0.1080751 -0.19056529 -0.23337154 0.19890681 -0.32439113 -0.13433841 0.15229443 -0.10468525
0.12926145 -0.14534146 0.69387424 0.33765224 -0.47854823 -0.17686878 -0.13718472 0.18537205
0.4190932 -0.143185 1.128377 -0.19321862 -0.32829186 -0.45939484 -0.25673223 -0.011418693
0.22255638 0.348274 -0.9429832 0.06273848 0.26999104 -0.049080133 -0.14133504 -0.15498163
-0.11366439 -0.115794525 -0.8449197 0.5580082 0.50889874 0.020665077 0.3328553 0.053632516

fc1.bias f4 [64]
00000000: fe54 1f3e 9cb8 c4be 4c50 943d 4ec0 043e
00000010: 9ea9 4cbe c0c9 62be af17 59be 6789 4cbd
00000020: 290c cabe 280c 20be f595 673d 4f46 1fbe
00000030: 119f 563e 9d65 9bbe 9c82 133e 9650 3c3e
00000040: a121 2ebd 46af 8cbe 3972 ab3d 0ef9 b43e
00000050: 2776 1ebe f845 8abd c254 0ebe 50d8 873d
00000060: c258 a33c 2cef 82bd 5442 f73d ea80 21be
00000070: c21b b13d 74b9 c53e 33e3 d7bc 2159 89b8
00000080: 95b2 4ebe f6bc 543e c3a2 2a3e cd19 1cbd
00000090: e89d 773e b188 0ebe 906e b93d bd76 88be
000000a0: 070c 6fbd 62e3 abbd 7bbe 5e3e 8370 2fbe
000000b0: 5ce7 1e3d 97bb 48be b9b2 44be a18e 67be
000000c0: 335e b4be bca4 3a3e 250c 8ebe 40dd 423e
000000d0: ec2b 143e 2967 7cbd ae2d de3d 38d2 0d3e
000000e0: ada8 c7bd 26f6 c1bd d48d ffbb 6016 75be
000000f0: af2f a2bc 89e8 b23c e48c 0d3e 5429 223e
0.15559766 -0.38422096 0.07241878 0.12963983 -0.19986579 -0.22147274 -0.21200441 -0.049935725
-0.39462402 -0.15629637 0.056539495 -0.15554164 0.20959117 -0.30350962 0.14405292 0.18390116
-0.04251254 -0.27477473 0.083713956 0.35346264 -0.15474759 -0.06751627 -0.1389952 0.06633055
0.019939784 -0.06393275 0.12073198 -0.15771833 0.086478725 0.38618052 -0.026353454 -6.5492706e-05
-0.20185311 0.20775208 0.16663651 -0.038110543 0.2418133 -0.13919331 0.09054291 -0.2665309
-0.05836108 -0.08392979 0.2175235 -0.17132764 0.03879486 -0.1960281 -0.19208802 -0.22613002
-0.35228118 0.18226904 -0.2774364 0.19029713 0.1446988 -0.06162182 0.108485565 0.13849723
-0.09748969 -0.09470777 -0.0077988897 -0.23934317 -0.019798128 0.021839397 0.13823277 0.15836078

fc2.weight f4 [64, 64]
00000000: ccbf d93d b6d1 c43d 4b0d c8be 2cef e43d
00000010: 962e 883e ab48 61be cbe6 b8be 8de8 a7bd
00000020: 3fda b5bd 5289 d5be efa9 aa3d 8b7e 07be
00000030: 3f0f 5abd af3e 80bd 675a 2abe 99b5 f23c
00000040: aa51 e5be 0fbf 55be 6f12 98bd 10ce 17be
00000050: 43dd 6c3e e880 543d fbfe f53c bffa c33e
00000060: 668d d6be e746 aabd 34da 6e3d 39a8 c9bd
00000070: 356d 94be 8bc5 aebd e3aa 51be fd73 bbbd
00000080: fa98 f83d 11b9 60be 9adc 92be 64db 4fbe
00000090: 67bd 92be 52fb 9b3d 888d eebd dedc fc3c
000000a0: fd6c 013e 0ea1 163d 7d17 ee3d b703 f9be
000000b0: f3ab 443b 0058 e1bd c14c 073e 387a 343d
000000c0: c4dc e6be 27b9 a8bc 0a90 a7be 930a 92bd
000000d0: dab2 44be 1bd6 713e 91c5 fbbe f034 cf3c
000000e0: cafd 05bf 0fed 213e e339 84bd ef55 ca3d
000000f0: 9c61 d0bd f0b6 d8be f4c4 3dbd d444 3ebd
00000100: 7445 033f 5142 ec3d 7e10 bebd 6809 253c
00000110: 4aa7 7d3e e7d2 bfbd 41c9 7fbe 6890 4ebe
00000120: d982 d93c 8ce7 bcbe dfc4 813e 7e1a d0bc
00000130: d441 3dbe f757 173e 0f66 c83d 3a66 083e
00000140: d96c aebe 53a6 84bd 9d66 923d 2cc1 9d3d
00000150: e2b2 c43e 1332 59be c79e 743d b2af fe3e
00000160: 4769 6dbe 6081 cfbd eed1 833d 67cf da3c
00000170: 5008 833d 20a6 123d d5a0 88be bd0c 7ebe
00000180: df13 b83e 5df2 e2be c1d0 81bd 3e51 8ebe
00000190: 639b 9b3c 5ea8 de3e 2f34 0a3e 03a6 a43e
000001a0: b901 9fbc 631b 4a3d e050 9b3d 2897 86be
000001b0: b4e1 273e 1fe0 d8bc d785 5cbc 40a7 35bb
000001c0: 911c 94be e7a9 15be b365 8cbe cdbd 11be
000001d0: 3af2 bc3e 04fe 9e3e 59cf 8cbe 6a6f acbc
000001e0: 056d f8be 0c6c b53e 5219 103e 5693 5e3e
000001f0: 20c8 34be 97d9 39be c565 ebbd af7b 8f3e
00000200: b252 e5be 217a d1bd be72 b73d 1c0c edbe
00000210: 5f3f 94bd d61a 233d c2eb 6f3e 920c b83d
00000220: 386b 7cbd 1c60 22bf 89de 8dbc 9d49 acbd
00000230: 3477 14bd a09b de3b aa3e a33b 13b6 663d
00000240: 3d3d dc3e 6572 cdbd 66e2 6abd a3d8 04bb
00000250: 4506 e2be e5a9 f1be 99d7 0bbf 0669 d2be
00000260: 88c7 1a3e 9f6f 813d a005 b5be fc79 4fbe
00000270: 2047 b53d 17bd 1b3d 5ce8 52bf 6ff6 bf3b
00000280: 578c 83be 79c1 70bd 0d97 cf3d b036 523e
00000290: 1160 c83e e48c b3be 59e5 b1bd 39af ecbd
000002a0: 2469 efbd 259b b4bd 0077 d8bd fd40 043f
000002b0: 82d6 eb3d 8923 193d 20c8 39bd 984b 803d
000002c0: 5c46 633e 9bb5 c03d e9ec 983e ab21 58be
000002d0: 5ad3 533e dfa6 20bd bfa5 db3e 4655 a2be
000002e0: a583 1dbe 1538 123d d530 d6be 5209 c93e
000002f0: 65ca 8fbe f848 9a3e 9f72 3dbe 12dc db3d
00000300: 750e 03bf 777e 12be 42a1 183d 77d6 4bbe
00000310: 28ef 073e 9797 1bbd f7ad 84bd f671 6cbd
00000320: 8da2 72bd f4f7 153d 83fc 95bd 3bcd 913d
00000330: 4afb 9b3e 2e54 3cba 70b1 e13d e8b4 98be
00000340: 6a1b 47be 8d22 0ebd bcc6 663e 5a00 3cbe
00000350: 9ed5 713d d40b 263e bc52 a73d 07c7 d33e
00000360: b954 473e 0f79 413e 28ee 0ebe 0e1b a23d
00000370: 870c 293d 21be c9bd c1f7 05bd ba1b 86bc
00000380: 6963 553e 4d21 243c b4c6 3ebe 8548 1cbe
00000390: e239 d2be c90f 8e3c 19ec 86bb 8092 f43d
000003a0: b258 d73a 6488 7abd 2de9 1bbd 99f3 82be
000003b0: fd3a 5d3d 9cf0 08be 653d 0abe 20e8 a73c
000003c0: 75bf d73c 6c1f ca3e af1a 4b3c 7389 8e3e
000003d0: c8e6 4cbe 767b a1bc 3d8b 16bf bcba 053d
000003e0: d7d1 1abe 5fbe 62bc 3609 90be f864 b83e
000003f0: 2838 0dbe d008 543d 32ff e63d 512e 2fbe
0.106322855 0.09610312 -0.39072642 0.11178431 0.26598042 -0.22000377 -0.3611358 -0.081986524
-0.08879518 -0.4170633 0.083331935 -0.13231866 -0.053237196 -0.06261956 -0.16636048 0.029627608
-0.44788867 -0.20873664 -0.07425391 -0.148247 0.2313128 0.051880747 0.03002881 0.38277242
-0.41904753 -0.08314305 0.058313563 -0.09846539 -0.28989568 -0.08533772 -0.20475344 -0.091529824
0.12138553 -0.21945597 -0.2868393 -0.20298535 -0.28660128 0.07616295 -0.11648089 0.030867036
0.12639232 0.036774687 0.11625574 -0.48635647 0.0030009716 -0.11003113 0.13212873 0.04406187
-0.45090306 -0.0205961 -0.3272708 -0.07130923 -0.19208851 0.23616831 -0.4917417 0.025293797
-0.52340376 0.15813087 -0.064563535 0.09879672 -0.101748675 -0.4232707 -0.046330407 -0.04645236
0.5127785 0.11536086 -0.092804894 0.010073043 0.24770847 -0.09366398 -0.24979116 -0.20172274
0.02655165 -0.36895406 0.25345513 -0.025403257 -0.18482143 0.1477965 0.09785091 0.13320246
-0.3406742 -0.06477036 0.07148478 0.0770286 0.38417727 -0.21210508 0.059721734 0.4974342
-0.23184691 -0.10132098 0.06436525 0.026710225 0.0639807 0.03580296 -0.26685205 -0.24809547
0.3595266 -0.44325534 -0.06338645 -0.27796358 0.018994993 0.4348783 0.13496469 0.32157907
-0.019410001 0.049342524 0.07583785 -0.26287198 0.16394693 -0.026474057 -0.013459644 -0.0027718097
-0.28928044 -0.14615594 -0.2742134 -0.1423256 0.36903554 0.31053174 -0.27501944 -0.02104922
-0.48520675 0.35433996 0.14072159 0.21735892 -0.17654467 -0.1814941 -0.114940204 0.2802405
-0.44789654 -0.10228372 0.08957432 -0.462983 -0.072386496 0.039820515 0.23429778 0.089867726
-0.06162569 -0.634279 -0.017318027 -0.08412478 -0.036246493 0.0067934543 0.0049818354 0.056325983
0.4301547 -0.10031585 -0.057344817 -0.0020270727 -0.44145408 -0.47199932 -0.5462585 -0.41095752
0.15115178 0.06320118 -0.35355854 -0.20261377 0.08851457 0.038022127 -0.823858 0.0058582346
-0.25693008 -0.05877826 0.101362325 0.20528674 0.39135793 -0.3506843 -0.08686323 -0.115568586
-0.11689976 -0.08818654 -0.105695724 0.51661664 0.115155235 0.037387405 -0.04535687 0.06264418
0.22194809 0.094096385 0.29868248 -0.21106593 0.20686093 -0.03922164 0.42899892 -0.31705683
-0.1538225 0.035698015 -0.4183413 0.39264923 -0.28084102 0.30133796 -0.18500756 0.107353345
-0.51193935 -0.14306055 0.037263162 -0.1990603 0.13274825 -0.037986364 -0.06478494 -0.05772587
-0.05923705 0.03661342 -0.073235534 0.07119223 0.30465156 -0.00071841746 0.11020172 -0.2982552
-0.19444051 -0.03470092 0.22536749 -0.18359509 0.05904161 0.1621545 0.08170077 0.41362783
0.19465913 0.18893836 -0.13958037 0.079153165 0.041271713 -0.09850717 -0.03270698 -0.016370643
0.20838703 0.010017705 -0.18630487 -0.15262039 -0.41059786 0.017341511 -0.0041175005 0.11942005
0.0016429632 -0.06116523 -0.03806417 -0.25576475 0.054011334 -0.13373035 -0.13499983 0.020496428
0.026336411 0.39477098 0.012396499 0.2783924 -0.20009911 -0.019712191 -0.5880621 0.032648787
-0.1511911 -0.013839333 -0.28132027 0.36014533 -0.13790953 0.051766217 0.112791434 -0.17107512

fc2.bias f4 [64]
00000000: ac20 3e3d a330 443d fb65 b53c e572 b0bd
00000010: 345f 323e 2e55 d93d 4972 73bd cb6a 873c
00000020: ed67 263e 2660 543d e734 d33c 8361 56bd
00000030: 4965 d33d e3a2 fbbd cfa2 1abe 74d6 99bc
00000040: 5018 0cbe 33cd 0d3e 85cb 273e 4ee0 703d
00000050: a002 e4bc 55c4 dd3c 2bff 923d c52a 843c
00000060: 160e b03d 7b9c f33d 1046 25bb b131 d73d
00000070: 003a 423e e980 8f3b 297b e63d 3611 94bd
00000080: bb10 033d c751 84bd 84b6 393e f029 0c3e
00000090: 7bad d33d a5ec 3d3e fcad 023d 8efe 383e
000000a0: b2f1 1cbd 007a 64bd 9dc2 21bc 5b17 853e
000000b0: 410e 6e3e e0b1 c43d 8a8f 1abc 85ce 0dbe
000000c0: c6cc b53d 9547 0f3e 6420 e4bc 040b 93bc
000000d0: 896f 00bd 7e41 97bd e083 7cbd 6c13 b0bd
000000e0: 872c 3b3e 79bf 7f3d b2cd 73bd 0327 2d3e
000000f0: 9988 053e 0786 e23c 2d97 d9bc 7fbb 3a3e
0.046417877 0.047897946 0.022143355 -0.086156644 0.1741913 0.1061195 -0.059435163 0.016530415
0.16250582 0.051849507 0.025782062 -0.05233909 0.10322053 -0.122869276 -0.15101169 -0.018779017
-0.1368115 0.13847809 0.1638623 0.058807664 -0.027833283 0.027071157 0.07177576 0.016133675
0.08596437 0.11895081 -0.0025218762 0.10507525 0.18967438 0.004379381 0.1125396 -0.07229845
0.031998377 -0.0646091 0.1813603 0.13687873 0.10335823 0.18547304 0.031904206 0.18065855
-0.038316436 -0.05578041 -0.00987306 0.2599438 0.23247625 0.096042395 -0.009433636 -0.13848312
0.08876948 0.1399215 -0.027847476 -0.017949589 -0.03135637 -0.073855385 -0.061649203 -0.085974544
0.18278705 0.062438462 -0.05952234 0.16909413 0.13040389 0.0276518 -0.026561344 0.18235587

fc3.weight f4 [32, 64]
00000000: 585d 1bbd 1625 d8bd 8021 61bc d4a3 b23d
00000010: bc27 50bd ac60 933d d47d 81bd c402 adbd
00000020: 64c9 8abd 2235 b5bd b43f c93d d210 ffbd
00000030: 5867 3e3d 1804 ecbc 30fc d6bc c648 ba3d
00000040: 4c80 c4bd d8ca 063d 9ca7 13bd 80a3 36bc
00000050: dc74 b4bd d881 b93d 58d6 20bd 0450 a53d
00000060: c065 eabc d003 dd3c 405f f53d 649e 2e3d
00000070: d455 02bd fa6d 90bd a00c 8f3b 6c39 5bbd
00000080: a0c9 f6bd 04d5 8cbd 6cd2 00bd 0a40 e83d
00000090: 500c 1abd 207b 45bd 349e e1bd ac4c 95bd
000000a0: aa8e b6bd f813 b1bc c61c eb3d 948b fdbd
000000b0: 2cee 233d 80cc c63b 2010 863c 40e4 36bc
000000c0: 061e f9bd f0e3 dfbd 3cf9 38bd f802 e63c
000000d0: e8a4 f1bd f287 d6bd 9834 e9bd 7083 503d
000000e0: 204d 39bd 6c37 31bd a43a 773d 82de efbd
000000f0: 3462 a83d 1c3c 983d 7e09 ccbd a4e0 afbd
00000100: fe12 94bd 2e22 8cbd a60c 9f3e 6174 523e
00000110: 8c21 2b3e 4749 203e 9309 b9bd 9082 ad3d
00000120: 3615 2bbe 0236 3fbe 6c05 12bd 0e74 8cbd
00000130: 2a65 22be 6711 9c3e 4064 f63d ca80 163e
00000140: d1e2 a13e 5e58 983e 1972 85be bf74 b2be
00000150: 5299 8f3e 6e47 29be 5e9e 533d 1953 7bbe
00000160: 7c7d 213e ce52 7a3e 2150 1cbd a5ae edbd
00000170: 9fb5 bfbe 52e6 0dbe 53f7 973e afab 823e
00000180: 21c4 c4bd b03a 19be 1658 91be 4ddc b2be
00000190: 4347 433e 0f42 8dbd a2be c33d 9ce2 f43b
000001a0: d618 ab3c 66fd 3b3e 562f 0c3d be76 3bbe
000001b0: 8651 4fbe d29c c23e a559 753d ead5 e0bc
000001c0: c8ed 373e 00b6 b43e 86bc 023e 9d9a d73d
000001d0: 49f2 7bbe 360f d0bd 736a 353e 2127 1abb
000001e0: d93d 79be e03e d1bd 1af1 80be e97f 00bf
000001f0: e711 483e 30b7 aa3c 16dc 123e 1879 36be
00000200: 38a0 013e a265 ffbc 8968 6abd 75f8 35be
00000210: 641c a9bd 715b 8cbe babf 423d e4c7 c7be
00000220: f0f6 4e3d 072d 7a3d f570 2ebe 0aed 97bd
00000230: 06b3 a43d f947 85bd 068d 28bc 1b38 11be
00000240: 7676 633c 286d 2bbd 9877 7b3d a61c 253b
00000250: aa53 b53c 737a 2d3e 42ac 30be 3bb2 a9bd
00000260: 4928 6f3b 3d6c 2d3e 3f79 abbd 584b 89bd
00000270: cf6d 2ebd 0d46 b9bd 11fa 65bc b25f 813d
00000280: a310 393a a216 e1bd 0b59 a0bd 06c2 17be
00000290: 1ca3 41bd 1ba0 b3be d381 5cbe 59f6 a4bd
000002a0: 7418 84bd 9603 babe 47b2 a63d bba0 35bd
000002b0: 821e b5bd 39a1 58be 75bb a1bd 5465 adbd
000002c0: 0f50 31be b70b 22be aaf0 f63d 3ebe 033e
000002d0: bb31 b0bd 4c05 f73d 4daf 90be 0b55 d5be
000002e0: 951b 66bd b9ac 17bd 02bb 28bd 44c0 49bd
000002f0: 3bdc 33be 6fbb 75be db51 373b b9e4 6cbc
00000300: 9027 913b eb24 503e 6a37 683e dcd2 9a3e
00000310: a236 093e a8dc fe3e e2cb 763d 8cf3 0e3f
00000320: 951c 8fbb 3f7c 243d d4f3 e33e 2d5e c33d
00000330: c0ea b0bd 9b1e 0abf d811 bd3e 0811 133f
00000340: f1d6 6f3e 5042 d0be 6605 7a3e 0d67 223d
00000350: cd3f ac3d 4c33 e4be 8996 273f d05f de3e
00000360: 3716 b4be d2b3 d8be d776 053f ef38 18bd
00000370: d709 753d fe1a e13d dce3 bbbe bbc3 973e
00000380: 9738 993e 75f1 563f 46d0 833d 2884 1e3e
00000390: 174d b0be cd82 203f b8aa 943e 01fe 743e
000003a0: d5e5 1f3c 7a78 433f f203 893b d2a0 d0bd
000003b0: 35a7 75bb 56a9 05bd 56f7 37bc d4f7 7bbd
000003c0: f76f 2c3f 6fc0 463e 45ed 09bc 30d1 74bd
000003d0: 968c 123e 59d5 29bd 16a0 713f 243f f63e
000003e0: 6b66 b4bd 9d6b 743e 4462 5f3e 0062 e63d
000003f0: f6b9 ea3e 3781 043f d915 70ba ae70 c03e
-0.037930816 -0.105539486 -0.013740897 0.08722654 -0.050819144 0.07196173 -0.06322828 -0.08447793
-0.067766935 -0.08848025 0.098266035 -0.1245438 0.046485275 -0.028810546 -0.0262433 0.09095912
-0.09594783 0.03290829 -0.036048517 -0.01114738 -0.08811352 0.09057969 -0.039266914 0.080719024
-0.028612971 0.026979357 0.11981058 0.04263152 -0.031820133 -0.07052226 0.0043655187 -0.05352156
-0.12050176 -0.06876567 -0.031450674 0.113403395 -0.0376094 -0.048213124 -0.11016503 -0.072900146
-0.0891393 -0.021615967 0.114800975 -0.12380138 0.04002206 0.006066859 0.01636511 -0.0111628175
-0.1216393 -0.109321475 -0.045159563 0.028077587 -0.117990315 -0.10475148 -0.113869846 0.0509066
-0.045239568 -0.043265745 0.06035866 -0.11712362 0.08221856 0.0743334 -0.09962748 -0.08587769
-0.07230185 -0.06842457 0.31064337 0.20552208 0.16712016 0.15652953 -0.09035029 0.084721684
-0.1670731 -0.18672946 -0.035649702 -0.06858073 -0.15858904 0.30482027 0.1203084 0.14697567
0.3161836 0.2975492 -0.26063612 -0.34854695 0.28046662 -0.16531155 0.051664703 -0.24543418
0.15770525 0.2444565 -0.038162354 -0.116055764 -0.37443253 -0.13857391 0.2968088 0.2552161
-0.09607721 -0.14963794 -0.28387517 -0.349337 0.19070153 -0.06897365 0.09557845 0.007473303
0.020885866 0.18358383 0.03422483 -0.18307015 -0.20245942 0.3801027 0.059899945 -0.027445752
0.179618 0.35295105 0.12767228 0.10527537 -0.24604143 -0.10159151 0.17716388 -0.0023521858
-0.2434 -0.102170706 -0.25183946 -0.50195175 0.19538079 0.020839304 0.14341769 -0.17819631
0.12658775 -0.031176392 -0.0572286 -0.1777056 -0.08257368 -0.27413514 0.047546126 -0.39019692
0.050528467 0.061078098 -0.17035277 -0.074182585 0.080419585 -0.06507868 -0.010287529 -0.14181559
0.013883224 -0.041852146 0.06139335 0.0025194078 0.02213462 0.16941242 -0.17253211 -0.08285948
0.0036492518 0.16935821 -0.08372735 -0.06703824 -0.04258519 -0.09046564 -0.014036671 0.063170806
0.0007059669 -0.10990645 -0.078294836 -0.14820108 -0.047274694 -0.35083088 -0.21533899 -0.080547996
-0.064499766 -0.3633086 0.081394725 -0.044342738 -0.088437095 -0.21155252 -0.07897083 -0.084665924
-0.17315696 -0.15824781 0.12057622 0.1286554 -0.08603235 0.12061557 -0.28258744 -0.41666445
-0.056178648 -0.037029956 -0.04119397 -0.049255624 -0.1756448 -0.23997281 0.0027972374 -0.014458829
0.004429765 0.20326583 0.22677389 0.30238998 0.13399747 0.49777722 0.06025303 0.55840373
-0.004367421 0.040157553 0.44521964 0.09539447 -0.08638525 -0.5395295 0.36927676 0.5744786
0.23421837 -0.40675592 0.24416122 0.039649058 0.084106065 -0.44570386 0.65464073 0.43432474
-0.351732 -0.42324692 0.5213446 -0.03716367 0.059823837 0.109914765 -0.3669728 0.29641518
0.29925987 0.83962184 0.064362094 0.15480101 -0.34433815 0.62699586 0.29036498 0.2392502
0.009759386 0.7635571 0.0041813785 -0.10186924 -0.0037483696 -0.032632194 -0.011228403 -0.061515644
0.67358345 0.19409345 -0.008418386 -0.05976981 0.14311442 -0.04146323 0.94384897 0.48095047
-0.08808597 0.23869176 0.21814829 0.11249161 0.45845002 0.51759666 -0.0009158529 0.37585968

fc3.bias f4 [32]
00000000: 108a 1f3c 8b9e 12be 5afe b9bd cc03 283e
00000010: 6fa7 d23d 9710 063e 6713 0dbd b00b d5bd
00000020: 8d7c d2bd e9be 7bba 1d25 a13e 2931 b33d
00000030: 42f4 513e e26b 233d e39c 5b3b 9ab5 1d3d
00000040: c7e9 b13e a848 d53d 595b 4fbd 6953 8b3e
00000050: 59a3 b6bd 7955 8dbd 780b 2e3e 29c5 793e
00000060: b0ff fb3d eff8 053e 034c 513e 3092 d3bd
00000070: 6f91 c23d e913 a1bd d655 b43d 3649 cbbc
0.0097375065 -0.14318292 -0.09081717 0.16407698 0.10285842 0.13092266 -0.03444233 -0.1040262
-0.102776624 -0.0009603338 0.31473628 0.08749611 0.20503333 0.039897807 0.003351026 0.038503267
0.3474867 0.10414249 -0.050624225 0.27212074 -0.08917875 -0.06901068 0.16996562 0.24391617
0.12304628 0.13083242 0.20439152 -0.103306174 0.095003955 -0.07865126 0.088054344 -0.024815183

fc4.weight f4 [4, 32]
00000000: 7126 0d3e 5129 dc3e 35dd a9bd 1241 70bb
00000010: b691 e53e f527 3d3e 3431 343e db8d 0abc
00000020: 6d4e c53e ea4c 993d f3c7 febe 4080 a53e
00000030: f727 20bf c1eb ae3e 617c a33e 6a20 c23e
00000040: 33ab 19bf 11ef aa3c ead4 da3d 3a36 bb3d
00000050: fb35 323e 66e7 de3d e76c acbe 1b37 f7be
00000060: c283 8e3e 4212 fdbe 00ec 8c3d 6545 80bd
00000070: a509 0ebd 89a8 c33e 2a27 e33e 0b97 4a3e
00000080: b652 8f3d ed7c a83d 3ecd ad3d 9f00 663e
00000090: 5ad0 283f 4175 a43e da66 043f 45ad c7bd
000000a0: ae1b 0b3f 95f3 3fbf 1474 87be 4811 a0be
000000b0: 817e c13d 9431 0b3f 5e51 0d3f a253 aabe
000000c0: a57c 9cbe 50c1 ac3d 2848 b13d cf24 3abf
000000d0: 5453 80bd 38c9 ef3d 3278 35bf d15d 223d
000000e0: d1c5 1dbf 9c71 893e dec3 66bf 3443 c0bd
000000f0: c978 33be 6c2f 213f 5493 083f 5bf3 38bf
00000100: 7751 193d 25a7 eebd 56c5 a9bd f719 ab3e
00000110: f676 1fbf a51e 133e 92e2 4bbf f3d0 e5bc
00000120: 784b 45be 9f71 e4be 6fdc f53e 02e9 1bbf
00000130: ec36 d13e 96de 7cbf 7d6a 00bf 7b90 2fbf
00000140: ec1a cd3e 3917 ba3b 1cfc d93d 72b4 273e
00000150: 49f0 db3d 9bb9 793d 991a 033f 8be1 d83e
00000160: fd87 7ebd 2774 a63e 7f4b a63d c7a8 1c3e
00000170: 782c 973c b35c debe 4f39 45bf 70e8 88be
00000180: 4fa8 53bd a58a a1be dba9 e63c e10a 82bf
00000190: 7ad9 eb3c 27ea 4fbf 3050 383e 0823 02be
000001a0: 357b 6fbf 91a2 2d3f 62c5 2abd 2c9f 263f
000001b0: b85b c2be 0e47 8e3e 20bb 3bbf 0d66 1a3f
000001c0: ae3e 46be 811e 51bd 4e3e fd3d 9be9 bf3e
000001d0: cce2 c33d 9bd3 11bd 7133 673e 7995 00bf
000001e0: cc86 c83e bb7e 77bf 67c9 903e b454 90bc
000001f0: 3cf1 ab3c 36f5 22bf 5611 1dbd d67d 093f
0.13784195 0.43000272 -0.08294145 -0.0036659879 0.4483773 0.18472274 0.17596895 -0.008456673
0.38536397 0.07485373 -0.49761924 0.3232441 -0.6256098 0.3416424 0.3193083 0.37915355
-0.60026854 0.020865949 0.106851414 0.09141202 0.17403404 0.108839795 -0.33676836 -0.4828423
0.27834898 -0.49427992 0.06880951 -0.06263236 -0.034677166 0.3821452 0.44365817 0.19784181
0.06998198 0.08226953 0.084864125 0.22461174 0.6594292 0.32120708 0.5171944 -0.097498454
0.5433911 -0.7498105 -0.26455748 -0.31263185 0.09447957 0.54372525 0.5520228 -0.33266932
-0.30563846 0.08435309 0.08656341 -0.72712415 -0.062658936 0.11708301 -0.7088653 0.03964025
-0.6162997 0.2684449 -0.9014262 -0.09387818 -0.17526545 0.62962985 0.53349805 -0.7224633
0.037431207 -0.11652974 -0.08289592 0.33418247 -0.62290895 0.14367159 -0.79642594 -0.028053736
-0.1926707 -0.44617936 0.4801974 -0.60902417 0.40862215 -0.9877714 -0.5016249 -0.68579835
0.40059602 0.005679038 0.10643789 0.16377428 0.1073919 0.060968023 0.5121246 0.42359576
-0.062141407 0.32510492 0.081198685 0.15298758 0.018453822 -0.434301 -0.7704057 -0.26739836
-0.051674183 -0.3155109 0.028157165 -1.015957 0.028790224 -0.81216663 0.17999339 -0.12708676
-0.93547374 0.6782618 -0.041692145 0.65086627 -0.379606 0.27788585 -0.73332405 0.6031197
-0.19359848 -0.05105448 0.12365399 0.37482914 0.095647424 -0.035602193 0.22578217 -0.5022808
0.39165342 -0.9667775 0.28278658 -0.017618515 0.020989053 -0.6365541 -0.03834661 0.53707635

fc4.bias f4 [4]
00000000: 2052 983d ed96 39be 11da 833e 8b69 3a3e
0.07437539 -0.1812398 0.2575231 0.18204324
